tflite-model/tflite_learn_785526_3.tflite (tflite, 84584 bytes, 42 tensors)

model_1/bn_Conv1/FusedBatchNormV3 f4 [16]
0	0xbfb412b2	-1.4068205
1	0x3f17f284	0.59354424
2	0xc1572b9a	-13.448145
3	0x3ff9db47	1.9520043
4	0x406e6a14	3.7252245
5	0xbff1b3e8	-1.8883028
6	0x403864ce	2.8811526
7	0xc0569b24	-3.353219
8	0x3d2b1df0	0.041776597
9	0x4023783c	2.5542135
10	0x403b0f13	2.922795
11	0x40b3c048	5.617222
12	0xbf9e8538	-1.2384405
13	0x406eb635	3.729871
14	0x40217df8	2.5233135
15	0xbe08b5e3	-0.13350634

model_1/expanded_conv_depthwise_BN/FusedBatchNormV3 f4 [16]
0	0xbe9a29c6	-0.30109996
1	0x402348ff	2.5513303
2	0x4080849f	4.016189
3	0x40625d80	3.5369568
4	0x3fea794a	1.8318264
5	0x405262cd	3.2872803
6	0x409c9911	4.893685
7	0x40786712	3.881291
8	0xbe36d4ea	-0.17854658
9	0x3fe163c2	1.7608569
10	0x40c24cc2	6.07187
11	0x412675d8	10.40377
12	0xbea5de69	-0.32396248
13	0x40dbd940	6.87027
14	0x4005226f	2.0802267
15	0xbed5362b	-0.4164289

model_1/block_1_expand_BN/FusedBatchNormV3 f4 [48]
0	0x4004e1fc	2.076293
1	0x3d799f89	0.06094316
2	0x40491a1b	3.1422184
3	0x3ff67bce	1.9256532
4	0x4001f149	2.0303519
5	0x40083689	2.1283286
6	0x40752f60	3.8310165
7	0xbd0a169a	-0.03371296
8	0x3c4de357	0.012566409
9	0xbf3fa4c5	-0.74860793
10	0x3fbe8142	1.4883196
11	0x3f4dbfbb	0.8037068
12	0x400cf965	2.2027218
13	0xbe261379	-0.16218366
14	0x40268d52	2.6023755
15	0x4052b9b1	3.2925837
16	0xbe0610b2	-0.13092306
17	0xbf2dced6	-0.6789373
18	0xbe4ab996	-0.19797358
19	0x4077ce5e	3.8719707
20	0x3f8de49d	1.1085392
21	0xbdaf19ef	-0.08549868
22	0xb9ce6560	-0.00039366912
23	0x3f291d6b	0.66060513
24	0x40743105	3.815492
25	0xbf23d215	-0.63992435
26	0x3e0fc024	0.1403814
27	0x3f9f7987	1.2458962
28	0x3f976abf	1.1829451
29	0x403b7083	2.9287422
30	0x403a92d1	2.915211
31	0x40174b05	2.3639538
32	0x3f4a958e	0.7913445
33	0x404e4dcd	3.2234986
34	0x3e1bf408	0.1522981
35	0xbf96bf90	-1.177721
36	0x3fc5d0fb	1.5454401
37	0x3fa861f7	1.3154896
38	0xbeba9ee2	-0.36449343
39	0x405efb29	3.4840796
40	0x4032588b	2.7866542
41	0x400cd694	2.2005968
42	0xbe3f86aa	-0.18703714
43	0xbf533322	-0.824999
44	0x40a2857f	5.078796
45	0x3e07b9f3	0.13254528
46	0x4033b2c3	2.8077857
47	0x3f686513	0.90779227

model_1/block_1_depthwise_BN/FusedBatchNormV3 f4 [48]
0	0x40c47853	6.139688
1	0x40804cb6	4.009364
2	0x41194d90	9.581436
3	0x40abae0e	5.364997
4	0xbd15c498	-0.03656444
5	0x400a14f8	2.1575298
6	0x3e795ab7	0.24351011
7	0x3fddf5c7	1.734063
8	0x40132816	2.2993217
9	0x3f56b544	0.8387034
10	0x40108440	2.258072
11	0x3e6ea34c	0.2330448
12	0xc0f233e7	-7.5688357
13	0xbf348171	-0.7051001
14	0x4029e1cb	2.6544063
15	0x3d80bed5	0.06286398
16	0xbf0f7295	-0.56034213
17	0x3f5cce3c	0.8625219
18	0x3e1658a4	0.14682251
19	0x3e30381b	0.17208903
20	0xbfd9aa8c	-1.7005172
21	0x3fe0ac4c	1.7552581
22	0x40b8504c	5.759802
23	0x3fa7ab0f	1.3099078
24	0xc0128b4b	-2.2897518
25	0x402f2743	2.7367713
26	0x3f988e64	1.1918454
27	0x3f54267e	0.82871234
28	0xbf3c151d	-0.73469716
29	0x3f866b77	1.0501546
30	0xbeb8f586	-0.3612482
31	0xc1097f04	-8.59351
32	0x40145a7e	2.3180232
33	0x3f858704	1.0431828
34	0x401f1c70	2.4861107
35	0x3e757eac	0.23974103
36	0x3f3cae6e	0.7370366
37	0xbd50f980	-0.05101919
38	0x4094671b	4.637586
39	0xbfe2db44	-1.7723165
40	0x3f721540	0.94563675
41	0xc0d2f54b	-6.592443
42	0x3e9298c5	0.2863218
43	0x3f6989eb	0.9122607
44	0xbec11828	-0.37713742
45	0x40bf5745	5.979403
46	0x3e650b50	0.22367597
47	0xc033c106	-2.8086562

model_1/block_2_expand_BN/FusedBatchNormV3 f4 [48]
0	0x40884237	4.258083
1	0x4013983c	2.3061666
2	0x3fc6056b	1.5470403
3	0x404fc573	3.2464263
4	0x400d9cf6	2.2127051
5	0x40a09473	5.0181212
6	0xbff4e715	-1.9133021
7	0xbea3444b	-0.3188804
8	0x3f018df3	0.5060722
9	0x3faf1618	1.3678617
10	0x400fa02f	2.2441518
11	0x3e11efe6	0.1425167
12	0x3f79c1e7	0.97561496
13	0xbef40be5	-0.47665325
14	0x3edcb43a	0.43106252
15	0xc0687be1	-3.632561
16	0x3fd2e948	1.6477442
17	0x408805c0	4.250702
18	0xbf068eca	-0.5256163
19	0x402da321	2.7130816
20	0x3f979cc2	1.1844714
21	0x3f867904	1.0505681
22	0x407fb42f	3.9953725
23	0xbef87b40	-0.48531532
24	0x3f9861f6	1.1904895
25	0x3f906999	1.1282226
26	0x40804510	4.0084305
27	0x4068a441	3.6350253
28	0xbdcad2dc	-0.099034995
29	0xc025da62	-2.591454
30	0x3d53d3f6	0.051715814
31	0x3f51d97f	0.819725
32	0xbffdc194	-1.98247
33	0x400cc957	2.1997888
34	0x3f8a81c1	1.0820848
35	0x3fec09f4	1.8440537
36	0x4069721d	3.64759
37	0x3fab4806	1.3381355
38	0x4014b064	2.323266
39	0x4092b871	4.585015
40	0xbf2310b6	-0.63697374
41	0x4031e553	2.7796218
42	0x3ed8ce94	0.42345107
43	0x3fc54cfb	1.5414118
44	0x3f9be192	1.2178214
45	0x3f8c39bb	1.0955118
46	0xbf92834a	-1.1446316
47	0x4029528f	2.645664

model_1/block_2_depthwise_BN/FusedBatchNormV3 f4 [48]
0	0xc1853c1e	-16.654354
1	0x3dbac143	0.09118893
2	0x3fcdad47	1.6068505
3	0xbe26c3c3	-0.16285615
4	0x3f3fe149	0.7495313
5	0xbee21ea8	-0.44164014
6	0x3f9a7898	1.2068052
7	0x405f1dc5	3.486192
8	0x3e48fc00	0.1962738
9	0x409ede9b	4.9646735
10	0xbe427c65	-0.18992765
11	0x408a6466	4.3247557
12	0xbfd9fc60	-1.7030144
13	0xbe6cec4c	-0.23137015
14	0x401fb91e	2.4956737
15	0x3fbfaf29	1.497533
16	0x3d4275ec	0.04747574
17	0x40833cee	4.1011877
18	0x401bc947	2.43416
19	0x3fe006d0	1.7502079
20	0xbdc2410f	-0.09485065
21	0xbd85dd1c	-0.06536314
22	0x3e9256ea	0.28581935
23	0x4004f5a0	2.0774918
24	0xbfa81af8	-1.313323
25	0x40676c27	3.615976
26	0x41c4656b	24.54952
27	0x404c2055	3.1894734
28	0x3f3abf19	0.7294784
29	0x3f53da97	0.82755417
30	0x3c11c340	0.008896649
31	0x3e0f8b49	0.14017977
32	0x3f580108	0.84376574
33	0x403566a4	2.8343897
34	0xbfa41b2d	-1.2820793
35	0x4020eec3	2.5145729
36	0xc0879377	-4.236751
37	0x4028d988	2.638277
38	0xc0c1cace	-6.0560064
39	0x4027b3d4	2.6203508
40	0x40497273	3.1476104
41	0x3fcab6cf	1.5837039
42	0x3fd4ac4e	1.6615083
43	0xbe662c92	-0.2247794
44	0x4017a756	2.3695884
45	0x3ed2876e	0.4111895
46	0x3ea34594	0.3188902
47	0xbdb1445c	-0.08655617

model_1/block_3_expand_BN/FusedBatchNormV3 f4 [48]
0	0x3e7d9f6d	0.24767847
1	0x3f30f9aa	0.6913096
2	0x3efe3117	0.49646828
3	0x3e0d0d53	0.13774614
4	0x40057c65	2.0857174
5	0x40818483	4.0474257
6	0x3f8debd3	1.1087593
7	0xbba1b3c0	-0.004934758
8	0xbe90a168	-0.28248143
9	0xbf02636d	-0.5093296
10	0x3f7cad86	0.98702276
11	0x3e99d1ec	0.3004297
12	0x3f9edd62	1.2411311
13	0x3f4fc44b	0.81158894
14	0x406623f6	3.595945
15	0x3fa11f49	1.2587672
16	0x3eff28e3	0.49835882
17	0xbee9a226	-0.45631522
18	0xbd275588	-0.040853053
19	0x3f45a6c2	0.7720758
20	0xbf19b2d9	-0.60038525
21	0x40272061	2.6113513
22	0x4067a4ce	3.6194339
23	0x3fc4f152	1.5386145
24	0x3fcf636a	1.6202214
25	0x3d34fa06	0.044183753
26	0x40deda55	6.964152
27	0x3feba2a0	1.8409004
28	0x3fdebada	1.7400773
29	0xbe551ce0	-0.20811796
30	0x4025c521	2.5901568
31	0x3f9973e8	1.1988497
32	0x3ebdc0a4	0.37061036
33	0xbd9cf1e7	-0.07663327
34	0x406e05df	3.7191083
35	0x3fe8c517	1.8185147
36	0xbfae952a	-1.3639271
37	0x3e077f8a	0.13232246
38	0xbe3e7935	-0.18600924
39	0x3ff3551e	1.9010351
40	0x3e2a0af8	0.16605747
41	0xbe26765d	-0.1625609
42	0xbe97276b	-0.2952226
43	0xbbfc5863	-0.007700966
44	0x3ff871f6	1.9409778
45	0x3fb30b76	1.3987873
46	0x3e88ee86	0.2674448
47	0x3f919c42	1.1375811

model_1/block_3_depthwise_BN/FusedBatchNormV3 f4 [48]
0	0x3e4d2870	0.20034957
1	0x3fa1cd1d	1.2640721
2	0xbe5ababc	-0.21360296
3	0x40198f41	2.3993685
4	0x3eae0a8e	0.33992428
5	0x4109ff14	8.624775
6	0xbeece06c	-0.4626497
7	0x40be46b5	5.946131
8	0x3eb6c0b8	0.35693908
9	0x3f8e30a0	1.1108589
10	0x3f814676	1.0099628
11	0x3e9fb44c	0.31192243
12	0x3e009c30	0.12559581
13	0x3f821754	1.0163369
14	0x3d94c120	0.07263398
15	0xbeaaeb7c	-0.33382785
16	0xbd93d760	-0.07218814
17	0x3db6c558	0.08924359
18	0x3e385fe4	0.1800533
19	0xbeb3acef	-0.35092875
20	0x3cc87c50	0.02447334
21	0xbf6f0b6f	-0.9337682
22	0xbdb7bda8	-0.08971721
23	0xc00ed9c7	-2.232042
24	0xbeef0ddf	-0.4669027
25	0x408a63f7	4.3247027
26	0x40691d05	3.6423962
27	0x40e4b4bc	7.1470623
28	0x3ecc3a4a	0.3988822
29	0x3e18e0d0	0.14929509
30	0xbe2d515b	-0.16925566
31	0x3e33e892	0.17569187
32	0x3f88e17d	1.0693814
33	0x3e973723	0.29534253
34	0x3f701edc	0.9379709
35	0xbd44a180	-0.04800558
36	0x40b5a6c0	5.676605
37	0x3dd57670	0.10422981
38	0x40b99440	5.799347
39	0x3e97a122	0.29615122
40	0x3e69c260	0.22828054
41	0x40b93b3b	5.7884803
42	0x3d558330	0.052127063
43	0x3e443594	0.19161063
44	0x3f84d919	1.0378753
45	0xbd11e690	-0.035620272
46	0x3e2e6f10	0.17034554
47	0x3f8a42d3	1.0801643

model_1/block_4_expand_BN/FusedBatchNormV3 f4 [96]
0	0x40254115	2.5820973
1	0x3eca092f	0.39460132
2	0x3faffc07	1.3748788
3	0xbf0f2dba	-0.5592915
4	0x3fcbddc4	1.5927052
5	0x3f686f0e	0.90794456
6	0x4047b1a5	3.1202176
7	0x405facdf	3.4949262
8	0xbed2a155	-0.41138712
9	0x3fe8b534	1.8180299
10	0x3fb607a1	1.4221078
11	0x3f4f8e81	0.8107682
12	0x402f18c6	2.735887
13	0x409a47f4	4.8212833
14	0xbe0e4df0	-0.13896918
15	0xbf2f250f	-0.6841592
16	0x400ec46d	2.2307389
17	0x40132b9b	2.2995365
18	0x3edda37b	0.43288788
19	0xbdc66516	-0.09687249
20	0xbeb308d4	-0.34967673
21	0x401e6347	2.4748094
22	0x3fc0a6c7	1.5050896
23	0x3f47dba3	0.78069514
24	0x3fdc38f0	1.7204876
25	0x40053ee6	2.081964
26	0x3fb754a1	1.4322702
27	0x3f62cc4f	0.88593
28	0x3c15e896	0.009149691
29	0xbd76f32c	-0.0602905
30	0x3fb8b8fb	1.4431452
31	0x3ff24623	1.8927654
32	0x3ff84028	1.9394579
33	0x3f88c2b7	1.0684422
34	0x3fceb0e1	1.6147729
35	0xbe7f663d	-0.24941345
36	0x4011f9f7	2.2808816
37	0x402768d8	2.6157742
38	0x3ed7d5ba	0.42155248
39	0x3f696b6d	0.91179544
40	0x3efe8b80	0.49715805
41	0x3ff462fb	1.9092706
42	0x40095f80	2.1464539
43	0x3f52b90c	0.8231361
44	0x3f8c3a09	1.0955211
45	0x40518c6e	3.2741961
46	0x4036f1b8	2.8585033
47	0x3fbae2ce	1.4600465
48	0x3fc72f7c	1.5561366
49	0x3f6861e2	0.9077436
50	0x3e352fb4	0.17693979
51	0xbf2ddf97	-0.67919296
52	0x40294f4d	2.6454651
53	0x3fce48e7	1.6115998
54	0x401784fa	2.3674912
55	0x3fe8fafd	1.8201596
56	0xbdda7d56	-0.10668437
57	0x3fd78a55	1.683909
58	0x3f44efaf	0.7692823
59	0x3fd190bd	1.6372296
60	0x3fdcf2ee	1.7261636
61	0x3fb2f4c6	1.3980949
62	0x3f87effb	1.0620111
63	0x4030fefc	2.765563
64	0x3f83d103	1.029816
65	0x3f952b01	1.1653749
66	0x3ff548a2	1.9162791
67	0xbeaf1b52	-0.3420053
68	0x4028d30d	2.6378815
69	0x3f98b116	1.1929042
70	0x3ff70950	1.9299717
71	0xbf0164f9	-0.505447
72	0xbeba1c9c	-0.36349952
73	0x3fa15e72	1.2606947
74	0x3ebcfabe	0.3691005
75	0x3fa1abd9	1.2630569
76	0x4014707c	2.3193655
77	0x408fdb8c	4.49555
78	0x3fd13eb6	1.6347263
79	0xbf9c1619	-1.2194244
80	0x3f8b3a40	1.0877151
81	0xc0043f52	-2.0663648
82	0xbec6e223	-0.38844404
83	0x3e5dca69	0.21659245
84	0x3fcd4467	1.60365
85	0x3fc5a084	1.543961
86	0x3fc9692e	1.5735223
87	0x3fad626d	1.3545662
88	0x3fd017b8	1.6257238
89	0x3fc1f362	1.51524
90	0x3faf934b	1.3716825
91	0x3fd8a64f	1.6925753
92	0x4007185d	2.110862
93	0x402e9ddb	2.7283847
94	0xc03af63d	-2.9212792
95	0x40580131	3.3750727

model_1/block_4_depthwise_BN/FusedBatchNormV3 f4 [96]
0	0x3ff22cab	1.8919882
1	0xbf649823	-0.8929464
2	0x3f2fc8f0	0.6866598
3	0x400c82bd	2.1954796
4	0xbe3cb744	-0.18429285
5	0xbf288e44	-0.6584208
6	0xc05c24ea	-3.439753
7	0x3e4b409a	0.19848862
8	0xbf0149c3	-0.50503176
9	0x3eed961f	0.46403596
10	0x3f25975b	0.64684075
11	0xbf2464f2	-0.6421653
12	0x3e769e98	0.24083936
13	0xc030b7de	-2.7612224
14	0x3f7134ee	0.9422139
15	0xbf6a5236	-0.91531694
16	0xbe87e83c	-0.26544368
17	0x40844800	4.133789
18	0x3fc738d2	1.5564215
19	0x3f1ebe74	0.6200936
20	0x3e18d064	0.14923245
21	0xbef60bc4	-0.4805585
22	0xbdc4dc1c	-0.09612295
23	0x3dc60270	0.09668434
24	0x406c207f	3.6894834
25	0xbe803390	-0.2503934
26	0xbd7cfb84	-0.0617633
27	0xbf3eb6e2	-0.7449781
28	0xbf1a7539	-0.6033512
29	0xbf472507	-0.77790874
30	0x3f3c3f9a	0.7353455
31	0xbfbf7408	-1.4957285
32	0x3d4d419a	0.05011139
33	0xbdde2ab4	-0.10847989
34	0xbe0b4b04	-0.13602835
35	0x401e6450	2.4748726
36	0x3efc0f50	0.49230433
37	0xbee70561	-0.4512129
38	0x3f723368	0.9460969
39	0x3e2a7b8f	0.16648696
40	0xbe364965	-0.17801435
41	0x3f09b079	0.537849
42	0xc053c346	-3.3087935
43	0xbf9881e6	-1.1914642
44	0xbfad69fb	-1.3547968
45	0x40726da8	3.787943
46	0xbdcba1cc	-0.0994297
47	0x4054411a	3.3164735
48	0x4025075d	2.5785744
49	0xc00a6c76	-2.16287
50	0x3cae5808	0.021282211
51	0x3f99ecdc	1.2025409
52	0x3fa71407	1.3052987
53	0xbdc97b0c	-0.098379225
54	0xbf89cc0a	-1.0765393
55	0x3fa31e3c	1.2743602
56	0xc0777518	-3.8665218
57	0x3efcb002	0.49353033
58	0x3de6f1b4	0.1127657
59	0xbec1fcd2	-0.378882
60	0xbf2c3190	-0.67263126
61	0xbca33cae	-0.019926395
62	0xc061c744	-3.5277872
63	0xbd82b593	-0.06382289
64	0x3e687f50	0.22704816
65	0x4036f57f	2.858734
66	0x4013a47a	2.3069139
67	0x3fdc185f	1.7194937
68	0xc05c8f0d	-3.4462311
69	0x3df7662c	0.120800346
70	0xc01872d8	-2.3820095
71	0xbe435bca	-0.19077983
72	0x40b93e6a	5.788869
73	0x3fcaec99	1.5853454
74	0x3d32a328	0.04361263
75	0xbd609608	-0.05483058
76	0x410a8b90	8.659073
77	0x3fbe2d80	1.4857635
78	0xbdc60313	-0.09668555
79	0xbff5d46d	-1.9205452
80	0xbe526e52	-0.20549896
81	0xc0073f3c	-2.1132345
82	0x3e12a9d8	0.14322603
83	0xbed9d45a	-0.42544824
84	0xbda1a33e	-0.07892464
85	0xbdce6540	-0.10077906
86	0x3e69a290	0.22815919
87	0xbdc218ae	-0.094773635
88	0x3e1fbed9	0.15600146
89	0xbe70a570	-0.2350061
90	0x3d055d0c	0.03255944
91	0x3d8346d4	0.06409994
92	0x3ddcd129	0.10782082
93	0xbe5eea46	-0.21769056
94	0x3f990eed	1.195768
95	0x40803b4b	4.007238

model_1/block_5_expand_BN/FusedBatchNormV3 f4 [96]
0	0x3ed604f2	0.41800648
1	0x3fb20b60	1.3909721
2	0x3feb823f	1.8399123
3	0x4015539b	2.3332279
4	0x403ff8d6	2.9995627
5	0xbf815c46	-1.0106285
6	0xbf47bc60	-0.7802181
7	0x3fd3b849	1.6540614
8	0x4014b4f9	2.3235457
9	0xbfa63b82	-1.298691
10	0x40299730	2.6498528
11	0x3f683016	0.90698373
12	0x3fa41595	1.2819086
13	0x4014d0f6	2.325254
14	0x4018dde3	2.388543
15	0x3f0babd8	0.5455909
16	0x3ef9075d	0.4863843
17	0x3f9d9897	1.2312192
18	0x400d0480	2.2033997
19	0x3f9f7bf5	1.2459704
20	0xbdffb5ae	-0.124858245
21	0x3e716cc3	0.23576646
22	0x3fff9163	1.9966244
23	0xbf324d6c	-0.69649386
24	0x40218634	2.523816
25	0xbd872bb8	-0.066001356
26	0x400eaa44	2.2291422
27	0x3fb0ac9e	1.3802679
28	0x3fd06fd8	1.6284132
29	0x40617360	3.522667
30	0x4034d183	2.8252876
31	0x401ee890	2.4829445
32	0x3fce097d	1.6096646
33	0xbeab6cae	-0.33481354
34	0x3fffa3a2	1.9971812
35	0x3f0f9d1a	0.5609909
36	0x3f099c2e	0.53753936
37	0x3fbec1db	1.490291
38	0x402f5ecc	2.740161
39	0xbf0eba4b	-0.5575301
40	0x3ff7a214	1.9346337
41	0x3fcf34c5	1.6187979
42	0x402c37d3	2.6909072
43	0xbf8b7ac5	-1.0896841
44	0x404f94ad	3.2434494
45	0x3fc5d486	1.5455482
46	0x3fe0f9c7	1.7576226
47	0x40307e81	2.7577212
48	0x40840aa9	4.1263013
49	0x4006c156	2.1055503
50	0xbdd0b01c	-0.1018984
51	0x3fdb197b	1.7117151
52	0xbf8a9588	-1.0826883
53	0xbd31b02e	-0.04338091
54	0xbf7e0e32	-0.9924041
55	0x3f8efa4e	1.1170137
56	0xbe09e36d	-0.13465662
57	0x3fef2ce4	1.8685575
58	0x40056bbb	2.0847003
59	0x3fbde0f4	1.4834275
60	0x3fcc7fb6	1.5976474
61	0x3fb376bb	1.4020609
62	0x3fb98d89	1.4496318
63	0x3f834685	1.0255896
64	0x401dba15	2.4644825
65	0x3febcf2b	1.8422598
66	0x3fa2f0af	1.2729701
67	0xbfae3ebe	-1.3612897
68	0x3fd6295c	1.6731372
69	0xbf3d2bfa	-0.7389523
70	0x3f8cd12e	1.1001337
71	0x3fcb144b	1.5865568
72	0x4001c489	2.0276206
73	0x3f87795a	1.0583909
74	0xbfc546b2	-1.54122
75	0xbfb53636	-1.4157169
76	0x3fdc4806	1.720948
77	0x3d4fbc18	0.05071649
78	0x3f2ebe6b	0.68259305
79	0xbec7b586	-0.3900568
80	0x4004e0b7	2.0762155
81	0x3fd2429a	1.6426575
82	0x3f5bf137	0.8591494
83	0x3ff73666	1.9313476
84	0x3f925bdf	1.1434287
85	0x3dccfeff	0.10009574
86	0x4014935e	2.3214946
87	0x407538d7	3.8315942
88	0x3fb2d591	1.3971425
89	0x4010a24a	2.2599053
90	0x3f9c41f7	1.2207631
91	0xbe00f91e	-0.1259503
92	0x3fb81536	1.4381473
93	0x3fcd8392	1.6055777
94	0x3f92773d	1.1442639
95	0x3fd5f1ad	1.6714379

model_1/block_5_depthwise_BN/FusedBatchNormV3 f4 [96]
0	0x400fe441	2.2483065
1	0x40b8b82b	5.7724814
2	0xbdd93424	-0.10605648
3	0xbe1573e8	-0.14594996
4	0x405a1e94	3.4081163
5	0xbf518429	-0.81842285
6	0xbd40ee4c	-0.047102258
7	0x3cc40a76	0.02393077
8	0x3fb0b47f	1.3805083
9	0x401c849a	2.4455934
10	0xbfabee98	-1.3432188
11	0x3e023eca	0.12719265
12	0x3e3d7dbd	0.18504997
13	0x3f47cd44	0.78047585
14	0x3fe95389	1.8228618
15	0xbfa7135c	-1.3052783
16	0xbf4ad26c	-0.7922733
17	0xbdda7da2	-0.10668494
18	0x3d8eee5b	0.069790564
19	0x3f984424	1.1895795
20	0xbf49febc	-0.7890432
21	0x3f41c930	0.7569761
22	0xbdf67768	-0.12034494
23	0x3f42a0b2	0.7602645
24	0x4036035b	2.8439548
25	0x3d4d89b4	0.050180152
26	0xbfa004f3	-1.250151
27	0x40389bc9	2.8845084
28	0x3f83d87c	1.0300441
29	0xc10afbbd	-8.68646
30	0x3eddf52c	0.43351114
31	0x40a5ba8e	5.179023
32	0x402386d2	2.5551038
33	0xbfb3fcbe	-1.4061506
34	0x3edf8e94	0.43663466
35	0xbe6df350	-0.23237348
36	0xbca3efc0	-0.020011783
37	0xbc40c440	-0.01176554
38	0x3f588eda	0.84592974
39	0xbf526df0	-0.82199
40	0xbfa0a87f	-1.2551421
41	0xbe8ba29e	-0.27272505
42	0xc0316390	-2.7717018
43	0xbbf871a0	-0.0075819045
44	0x4129e515	10.618428
45	0xbe827286	-0.25478
46	0x3fa9c6ef	1.3263835
47	0x3dbf8968	0.0935238
48	0xc11e4e68	-9.894142
49	0x3e854b4a	0.26034003
50	0xbc1c5128	-0.0095408335
51	0xbd69dd92	-0.05709607
52	0xbf0cd7e0	-0.550169
53	0x40312825	2.7680752
54	0xbf53fdce	-0.8280915
55	0x3fdc1b4a	1.7195828
56	0x403ec1b6	2.9805732
57	0x3e822f69	0.25426796
58	0x3fc7f8ca	1.5622799
59	0x3da53d65	0.08068351
60	0xc0342c0a	-2.815188
61	0xbe93df04	-0.28881085
62	0x3e196e7d	0.14983554
63	0xbcad1aee	-0.021131005
64	0xbe8cb738	-0.27483535
65	0x3ff664b6	1.9249485
66	0xbed8943e	-0.423006
67	0xc00d5b18	-2.208685
68	0xbeecb004	-0.4622804
69	0x3ed07114	0.40711272
70	0xbd2ffa08	-0.042963058
71	0xbe902cb1	-0.28159097
72	0x3e3a7606	0.18209085
73	0x3d90f158	0.07077283
74	0xbf353f6c	-0.707999
75	0xbff7749d	-1.9332463
76	0x3db287a6	0.08717279
77	0xbddc6fc8	-0.10763508
78	0x40215bb7	2.5212228
79	0xbfa4983f	-1.2858962
80	0xbfad3cec	-1.3534217
81	0xc022b99e	-2.5425792
82	0x3bf6f700	0.007536769
83	0xbe3a693e	-0.18204209
84	0x4063eb23	3.5612266
85	0xbfb1c83c	-1.3889232
86	0xbf67cd25	-0.905474
87	0xc14f96ea	-12.974344
88	0xbfde4964	-1.7366147
89	0x3f901a2e	1.125799
90	0xbf7bfb80	-0.98430634
91	0x3f8cf7f4	1.1013169
92	0xbdfa07a4	-0.122084886
93	0xbe4cfb52	-0.20017746
94	0xbf74c84e	-0.9561814
95	0x3eb9f3e3	0.36318883

model_1/block_6_expand_BN/FusedBatchNormV3 f4 [96]
0	0xbf1e3afb	-0.6180875
1	0x3fcbbcb7	1.5916966
2	0x401d1e04	2.454957
3	0x3f5e10b2	0.86744225
4	0xbf86c055	-1.0527445
5	0xbfb22fdf	-1.3920859
6	0x405457a2	3.3178487
7	0x3f35d6b8	0.7103076
8	0x3f1869fd	0.59536725
9	0xbf26ca93	-0.65152854
10	0x3ff2d649	1.8971645
11	0xbdb85353	-0.09000268
12	0xc0220b17	-2.5319269
13	0x4032f010	2.7959023
14	0x4045e47c	3.0920706
15	0x3f8f2514	1.118319
16	0x3feb6ad2	1.8391974
17	0x3fb9d82b	1.4519094
18	0xbff522c3	-1.9151233
19	0xbfdba6af	-1.7160243
20	0x3f1a6c4d	0.60321504
21	0x402cdca5	2.700967
22	0x40447f92	3.0702863
23	0x3fd6baca	1.6775753
24	0x3e4558bc	0.1927213
25	0x3eee3fe1	0.4653311
26	0x403e9391	2.9777567
27	0x3f913e67	1.1347169
28	0x3f004f29	0.5012079
29	0xbffa5af1	-1.9559003
30	0x3fbc5305	1.4712836
31	0xbf466146	-0.7749218
32	0xbd275a07	-0.04085734
33	0x3f93ec74	1.1556535
34	0x3cc2b432	0.023767564
35	0x3e7b3810	0.24533105
36	0x3ff530a6	1.9155471
37	0x3f89c08b	1.0761884
38	0xbf1c5ce1	-0.6107922
39	0x3fe7eaf1	1.8118573
40	0x3fa4c34e	1.2872102
41	0x4027181e	2.610847
42	0x3fc006c3	1.5002064
43	0x401546bc	2.3324423
44	0x3ff651ef	1.9243754
45	0x3f80f160	1.0073662
46	0x3efebed4	0.49754965
47	0x400b917c	2.1807547
48	0x3fabdc31	1.3426572
49	0xbfa65bb0	-1.2996731
50	0xbfc62b14	-1.5481896
51	0x3dbce908	0.09224135
52	0xbe1cab0a	-0.15299621
53	0xbe9916d8	-0.2990024
54	0x3f4c9a8a	0.7992331
55	0x3c16e590	0.009210005
56	0x3df4ed49	0.11959321
57	0xbe8df9f9	-0.27729777
58	0xbfc7f718	-1.5622282
59	0x3fecd4f6	1.850249
60	0xbf41d5ac	-0.7571666
61	0x3f2df8ac	0.6795757
62	0xbe898fe6	-0.26867598
63	0xbf44c3c3	-0.7686121
64	0xbfee0c6d	-1.8597542
65	0x3ff4f145	1.913613
66	0x400b8ef4	2.1806002
67	0x3eea1b47	0.45723936
68	0xbf94770e	-1.1598833
69	0x3ea8778c	0.32903707
70	0x3ece90b5	0.40344778
71	0x3f0395f7	0.51400703
72	0x3fae60bf	1.3623275
73	0xbed30143	-0.412119
74	0x3e553820	0.20822191
75	0x400c3880	2.1909485
76	0xbe086165	-0.13318403
77	0x3ff5678d	1.9172226
78	0x3fe7591f	1.8074073
79	0xbe4fb0e7	-0.20282327
80	0x3fba7403	1.4566654
81	0x3eac577c	0.33660495
82	0xbdb5af85	-0.08871368
83	0x3e7829f9	0.24234761
84	0x3fe8d186	1.8188941
85	0x4018a3d8	2.3850002
86	0x4015eeca	2.3426995
87	0x3e9409f8	0.28913856
88	0x3f2a6347	0.66557735
89	0x4002e71e	2.0453563
90	0xbe02d277	-0.12775598
91	0xbfff0f08	-1.9926462
92	0x3e6584f7	0.22414003
93	0xbf8595e9	-1.0436374
94	0xbf1edf9e	-0.6205996
95	0xbecf906e	-0.4053988

model_1/head/BiasAdd/ReadVariableOp f4 [32]
0	0xbaf2f6ed	-0.0018536724
1	0xba5eb67b	-0.00084958196
2	0x39a642e3	0.00031711822
3	0xba0cb9ce	-0.0005368263
4	0xbc006694	-0.0078369565
5	0x3a9ea268	0.0012102844
6	0xbc505579	-0.012715691
7	0x3be1bf6e	0.0068892753
8	0x3bfd442f	0.0077290754
9	0x3d31e207	0.043428447
10	0x38c2db3f	9.291479e-05
11	0xbd044ed5	-0.032301743
12	0x3aed8941	0.001812257
13	0x3b3304e3	0.0027316145
14	0xbc9e3dbe	-0.01931655
15	0xbc928ca2	-0.017889325
16	0x3a137b55	0.0005625983
17	0xbcdd5848	-0.027019635
18	0x3d728ca5	0.05921616
19	0xbc9b0d92	-0.01892737
20	0xbb6dc3fc	-0.0036280146
21	0x3ba80d05	0.005128505
22	0x3b822af0	0.0039724037
23	0xbb9f247f	-0.0048566456
24	0xbc903e42	-0.017607812
25	0xbcc2757a	-0.023737658
26	0xbbd43d1c	-0.0064770114
27	0xbc0b2003	-0.008491519
28	0xbc8f84c4	-0.017519362
29	0x3b9fd636	0.004877831
30	0x3baf515b	0.0053502745
31	0xbc772dac	-0.015086573

model_1/expanded_conv_depthwise_BN/FusedBatchNormV3;model_1/expanded_conv_depthwise/depthwise;model_1/block_5_project/Conv2D f4 [1, 3, 3, 16]
0	0xc1091ce8	-8.569557
1	0x3eccfaf5	0.40035215
2	0xbece4e6e	-0.40294212
3	0xbfe0e417	-1.7569607
4	0x3e8ce0e3	0.27515325
5	0xc1802a0b	-16.020529
6	0x3fafcd5c	1.3734546
7	0xc1ba759b	-23.307425
8	0xbdd3fdb4	-0.103511244
9	0xbd25a3c7	-0.040439393
10	0xbd924614	-0.071422726
11	0x3f63ae66	0.88937986
12	0xc07b37ea	-3.9252877
13	0x3d6c06bd	0.057623614
14	0x3ec8f5c3	0.3925
15	0xc141c20a	-12.109873
16	0x4080db16	4.026744
17	0x3f08fd83	0.5351183
18	0xbf206a50	-0.6266222
19	0x3fe1cff7	1.7641591
20	0x3f66e69d	0.9019564
21	0xc1f33141	-30.39905
22	0x400bcc41	2.1843417
23	0xc21bf73a	-38.991432
24	0xbdc7a290	-0.09747803
25	0x3fd56ac2	1.6673205
26	0xbf9223cb	-1.1417173
27	0x3fd3a97a	1.6536095
28	0xc04f84e0	-3.242485
29	0x3d853c47	0.065056376
30	0x3f6c5d87	0.9233021
31	0xc0829e39	-4.0818143
32	0x3ff42133	1.9072632
33	0xbf0b412c	-0.5439632
34	0x3ee6e662	0.45097643
35	0xbce6d7bc	-0.028179042
36	0xbf03583d	-0.51306516
37	0x41806be8	16.052689
38	0xbfcdc913	-1.6076988
39	0x41be5349	23.790667
40	0xbddf9689	-0.10917384
41	0xbeb75e25	-0.35814014
42	0x3d0ce29a	0.03439579
43	0xbf09be92	-0.5380641
44	0x3ff29476	1.8951557
45	0x3c933ac1	0.017972352
46	0xbf3c8ac8	-0.73649263
47	0xc0990719	-4.7821164
48	0xc12165ba	-10.087336
49	0x40329141	2.7901156
50	0xbdd9985f	-0.106247656
51	0x3e3f2061	0.18664695
52	0xbe9eea3e	-0.31038088
53	0x406d0930	3.7036858
54	0xbef6cadf	-0.48201653
55	0x4088fc73	4.2808166
56	0xbd02d35d	-0.031939853
57	0x3bc12356	0.005894105
58	0x3cd19332	0.025582884
59	0xc05f1b50	-3.486042
60	0xbfc1f83c	-1.515388
61	0x3dcb2944	0.0991998
62	0xbe5c31d4	-0.21503383
63	0xc01372ac	-2.303874
64	0xc0c6f999	-6.2179685
65	0xbf6beb40	-0.9215584
66	0xbe907407	-0.28213522
67	0xbe4efc83	-0.20213513
68	0xbd5bbd33	-0.05364723
69	0xc0c53093	-6.1621795
70	0x3e1397ea	0.1441342
71	0xc1072586	-8.446661
72	0xbdfeac90	-0.124352574
73	0xbf958aa8	-1.168294
74	0x3e3f3d5a	0.18675748
75	0xbec38180	-0.38184738
76	0xc04de688	-3.2171955
77	0xbfbe8775	-1.4885088
78	0x3bc2f9db	0.0059501952
79	0x4073c551	3.8089182
80	0x3f8e5354	1.111918
81	0x3c4c04d0	0.012452319
82	0x3ea4ac0b	0.32162508
83	0x3ce9c3c5	0.028535733
84	0x3c9f03e3	0.019411033
85	0x4100badc	8.04562
86	0xbed9a041	-0.42505077
87	0x412397a0	10.224518
88	0xbe15eae2	-0.14640382
89	0x3dadaa50	0.0847975
90	0xbc8f3db7	-0.017485483
91	0xb907223c	-0.00012887357
92	0xbf297662	-0.6619626
93	0x3e09e9eb	0.13468139
94	0xbce1e2d2	-0.027573977
95	0x40e5bf96	7.179637
96	0xc1127c81	-9.155396
97	0xbfccc40b	-1.5997328
98	0x3eb00a16	0.34382695
99	0x3cf0da6a	0.029401023
100	0xbd3a0a27	-0.04541984
101	0x41144c21	9.268586
102	0xbf2a4add	-0.6652048
103	0x417f7079	15.964959
104	0xbdb43604	-0.08799365
105	0x3b810f1f	0.00393857
106	0xbb4509b8	-0.0030065607
107	0x3e373811	0.17892481
108	0x3f9eb3b8	1.2398596
109	0x3cadb33c	0.02120363
110	0xbe487cdc	-0.1957888
111	0x4070455c	3.7542334
112	0x3fe8505f	1.8149527
113	0xbdcac66a	-0.09901126
114	0x3e205752	0.1565831
115	0xbcc0094e	-0.023441937
116	0xbe44294d	-0.1915638
117	0x41188f75	9.535024
118	0xbf13b613	-0.576997
119	0x40cae406	6.340335
120	0xbe138d92	-0.14409474
121	0xbe2f7477	-0.17134272
122	0xbbc8424a	-0.006111418
123	0x402c6896	2.6938834
124	0xbfe4784e	-1.7849214
125	0x3a1c1722	0.0005954375
126	0xbe53cdf5	-0.20684035
127	0xc1937042	-18.429813
128	0x3fd0fd67	1.6327332
129	0xbe2abd03	-0.16673665
130	0x3dc36cfd	0.09542272
131	0xbb251682	-0.0025190418
132	0x3cf5427a	0.029938925
133	0x4059c9c3	3.4029396
134	0x3e23db64	0.1600166
135	0x40d9a09a	6.8008547
136	0xbe07b70e	-0.13253424
137	0x3d6c1411	0.057636324
138	0xbc1cd738	-0.0095727965
139	0xc07db4ca	-3.9641595
140	0x4053acb2	3.3074155
141	0x3cffff49	0.03124966
142	0x3dfca7cc	0.12336692
143	0xc1a8b9aa	-21.090656

model_1/expanded_conv_project_BN/FusedBatchNormV3 f4 [8]
0	0x3f497640	0.7869606
1	0xc2c9dbac	-100.92905
2	0xc1a53543	-20.651007
3	0xc161e106	-14.117437
4	0xc2151e26	-37.27944
5	0xc12d035e	-10.813322
6	0xc21b3e53	-38.810863
7	0xc1e8f0a7	-29.117506

model_1/block_1_depthwise_BN/FusedBatchNormV3;model_1/block_1_depthwise/depthwise;model_1/block_3_depthwise/depthwise f4 [1, 3, 3, 48]
0	0xbe24573f	-0.16048907
1	0xbd880231	-0.06641043
2	0xbd23f6f8	-0.04003045
3	0xbdb98422	-0.090584055
4	0x3d35e22c	0.044405147
5	0xbe8097ca	-0.25115806
6	0xbedcdf0c	-0.4313892
7	0xbe3db29b	-0.18525164
8	0xbda6bbb5	-0.08141271
9	0xbd8d0c33	-0.068870924
10	0x3cfa0bf7	0.030523283
11	0x3d8d59d5	0.069019
12	0x3e719f4e	0.23595926
13	0xc185894f	-16.692045
14	0x3ed52ec6	0.41637248
15	0xbecb32e1	-0.39687255
16	0xc1535754	-13.20882
17	0xbdaff226	-0.08591108
18	0x3e1457f7	0.14486681
19	0xbd4196b1	-0.04726285
20	0xbb8c779a	-0.0042867186
21	0xbf0b375d	-0.5438135
22	0xbf04f457	-0.51935333
23	0xbe12076f	-0.14260648
24	0xbe10ba6d	-0.14133616
25	0xbf1f4f9b	-0.62230843
26	0xbdae610c	-0.08514604
27	0xbd039705	-0.032126445
28	0x3f6bd612	0.9212352
29	0x3d1e45dd	0.038640846
30	0x3e40fb46	0.18845853
31	0x3e464e16	0.19365725
32	0xbfb6ad23	-1.4271587
33	0xbd23d90b	-0.04000191
34	0xbca70c66	-0.020391654
35	0x3ecac734	0.39605105
36	0x3c15a4be	0.009133516
37	0x3f6fe828	0.9371362
38	0xbe1b4d26	-0.15166149
39	0x3e87c347	0.26516172
40	0xbe627898	-0.22116315
41	0xbe0db9bb	-0.13840382
42	0x3ef01b4c	0.46895826
43	0xbd4a416c	-0.049378797
44	0xbc06aec2	-0.008220376
45	0xbdf0706a	-0.11740191
46	0xbf3ca895	-0.73694736
47	0x3f0c30f7	0.54762214
48	0x3e8e8529	0.27835968
49	0x3d0efbf2	0.034908243
50	0xbe4543c8	-0.19264138
51	0xbe170b43	-0.1475039
52	0x3eb665ff	0.35624692
53	0xbf4bf337	-0.7966799
54	0xbf320ffc	-0.6955564
55	0xbe5d76a9	-0.21627297
56	0x3e4b5304	0.19855887
57	0xbdcbe574	-0.09955874
58	0xbec853c3	-0.39126405
59	0x3de468d4	0.11152807
60	0x3e885be4	0.26632607
61	0xc199cffa	-19.226551
62	0xbaa75aa7	-0.0012768105
63	0x3f15c227	0.5849938
64	0xc0c1d58a	-6.057317
65	0xbdea2dce	-0.11434518
66	0x3e61e240	0.22058964
67	0x3d4c7917	0.049920168
68	0x3d2d53a0	0.04231608
69	0xbf50ee13	-0.8161327
70	0xbf1615ec	-0.586272
71	0xbe04691f	-0.12930726
72	0xbcbd6a17	-0.023121877
73	0xbf279767	-0.65465397
74	0xbe22259e	-0.15834662
75	0xbd955636	-0.07291834
76	0xbf32d1a3	-0.6985113
77	0x3d54d3fb	0.051959973
78	0xbde52572	-0.11188783
79	0x3ec0ef27	0.3768246
80	0x3e9c9aec	0.30586946
81	0xbd69c02f	-0.057068046
82	0x3e6ac3d1	0.2292626
83	0x3f1b746f	0.6072454
84	0x3becf574	0.0072314087
85	0x3fb53d52	1.4159338
86	0xbde45701	-0.11149407
87	0x3eddbbd7	0.43307373
88	0xbebca517	-0.36844704
89	0x3d9a5236	0.07535212
90	0x3f0e7411	0.55645853
91	0xbd6cda20	-0.057825208
92	0x3cba423d	0.022736663
93	0xbda2298f	-0.07918083
94	0xbf87b5f0	-1.0602398
95	0x3efa1edc	0.4885167
96	0xbdf44131	-0.11926497
97	0x3df8400c	0.12121591
98	0x3d2a4d88	0.041577846
99	0xbce1127f	-0.02747464
100	0xbecfdc07	-0.40597555
101	0xbf311cbe	-0.6918448
102	0xbea570e6	-0.32312697
103	0xbd4b8ddb	-0.04969583
104	0x3e90b940	0.28266335
105	0xbc309cbd	-0.010779557
106	0xbed9a275	-0.42506757
107	0x3d1c2303	0.038119327
108	0x3d6c180d	0.057640124
109	0xc185e608	-16.73732
110	0xbebb2668	-0.3655274
111	0xbdd5e84a	-0.10444696
112	0xc16d5a72	-14.834581
113	0xbcc7c6b5	-0.024386743
114	0x3dccb98f	0.0999633
115	0x3dbf5476	0.093422815
116	0xbd99d7da	-0.075118735
117	0xbf05b9a3	-0.52236384
118	0xbe2d4af9	-0.16923131
119	0xbd2a0d71	-0.041516725
120	0xbd449e74	-0.048002675
121	0xbe270b95	-0.16313012
122	0xbd9e9c27	-0.077446274
123	0xbc94bdc5	-0.018156895
124	0xbe0e65a9	-0.13905968
125	0x3d2fa1e6	0.042879008
126	0xbd4208ac	-0.04737155
127	0x3d866c43	0.06563618
128	0x3f98f5fc	1.1950068
129	0xbd1b9f22	-0.037993558
130	0x3e80e8f4	0.2517773
131	0x3e6d85bc	0.23195547
132	0x3bfae29e	0.0076564094
133	0x3f2f1edc	0.6840646
134	0xbc137306	-0.008999592
135	0x3d6134d4	0.05498202
136	0xbe68592d	-0.22690268
137	0x3d0677d6	0.03282913
138	0x3d15ea7e	0.036600582
139	0xbd140635	-0.036138732
140	0xbdafaa39	-0.08577389
141	0x3c6dcede	0.014514653
142	0xbeecd48f	-0.4625592
143	0x3d9a8dbe	0.075465664
144	0xbea38648	-0.31938386
145	0xbebfadbb	-0.37437233
146	0xbe91f50d	-0.2850727
147	0xbe64fa5a	-0.22361127
148	0xbd7f50a8	-0.06233278
149	0x3ead497c	0.33845127
150	0x3f0ba1fc	0.54544044
151	0xbe90e2b8	-0.28297973
152	0xbda37eb8	-0.07983154
153	0xbe13a553	-0.14418535
154	0xbd902b92	-0.070395604
155	0x3deb3884	0.11485389
156	0x3f1f6446	0.6226238
157	0xc172b6c8	-15.169624
158	0x3dc79018	0.097442806
159	0xbf652252	-0.89505494
160	0xc162cf9d	-14.175687
161	0xbdc73693	-0.09727206
162	0x3eaf0ee6	0.34191054
163	0xbf159c57	-0.5844168
164	0x3e42fe55	0.19042332
165	0xbf1ddc0a	-0.6166388
166	0xbef47eac	-0.47752893
167	0xbe66de19	-0.22545661
168	0x3e302b73	0.17204075
169	0xbf15583a	-0.5833775
170	0xbdd8c0e8	-0.10583669
171	0xbd8dafa2	-0.06918265
172	0x3fd257ae	1.6433008
173	0xbe1defe4	-0.15423542
174	0x3e817b3a	0.25289327
175	0x3f1b63ff	0.60699457
176	0xbefbca4d	-0.4917778
177	0xbd1c617c	-0.038178906
178	0xbd32d9ab	-0.043664616
179	0x3f1b2c7d	0.6061476
180	0xbc936dd5	-0.017996708
181	0xbfbcd10a	-1.4751294
182	0xbe0376a3	-0.12838225
183	0x3e9c596a	0.30536968
184	0x3df51234	0.119663626
185	0x3f1677f9	0.58776814
186	0x3ef320f8	0.4748609
187	0xbd47febe	-0.048826925
188	0xbf03d1dc	-0.51492095
189	0xbec47921	-0.38373664
190	0x3f301a3e	0.6879004
191	0x3f1d81df	0.6152629
192	0x3eefe536	0.46854562
193	0xbe795932	-0.24350432
194	0xbf552bb1	-0.8326979
195	0xbf28cf20	-0.6594105
196	0x3f49c31a	0.78813326
197	0x3e8486c1	0.2588406
198	0x3f046d60	0.51729393
199	0xbeabfd7f	-0.3359184
200	0x3ea7eddd	0.32798663
201	0xbe2cf12c	-0.16888875
202	0xbebca43e	-0.36844057
203	0x3e059b36	0.1304749
204	0x3f643185	0.8913806
205	0xc0591f9c	-3.3925543
206	0xbcc2a209	-0.023758905
207	0x3f9980bc	1.1992412
208	0xc0dfeb98	-6.997509
209	0xbe0776a0	-0.13228846
210	0x3ef5bbd5	0.47994867
211	0xbf7669a6	-0.96254957
212	0x3f143736	0.57896745
213	0xbf6c8688	-0.9239278
214	0xbf0cda7f	-0.550209
215	0xbe56162e	-0.20906898
216	0x3f04f346	0.51933706
217	0xbf01e710	-0.507432
218	0xbe2e1df4	-0.17003614
219	0xbe764901	-0.24051286
220	0xbfc8797a	-1.5662072
221	0xbea85ab6	-0.32881707
222	0xbe0fbffc	-0.1403808
223	0x3f667171	0.9001685
224	0x3e9ce2aa	0.3064168
225	0xbd507e2e	-0.050901584
226	0x3ee6aa18	0.45051646
227	0x3f679fac	0.90478015
228	0xbd0fbcbc	-0.0350921
229	0xc01c36df	-2.440849
230	0xbdee73dd	-0.11643193
231	0x3e9cb32a	0.3060544
232	0x3e33c7e4	0.17556721
233	0x3fa2d108	1.2720041
234	0x3f1210a3	0.57056636
235	0xbd56066a	-0.05225221
236	0xbf211bf5	-0.62933284
237	0xbed5fbfa	-0.41793805
238	0x3f865597	1.049487
239	0x3f263c98	0.6493621
240	0xbe4d0977	-0.20023142
241	0x3dade042	0.084900394
242	0xbece7e60	-0.4033079
243	0xbee0ec2f	-0.43930194
244	0xbf3e8100	-0.7441559
245	0xbe1a16cb	-0.15047757
246	0x3e32fb26	0.17478618
247	0xbdd7e475	-0.105416216
248	0x3ece62fe	0.403099
249	0xbce016fc	-0.02735471
250	0xbe81b580	-0.25333786
251	0x3d105937	0.035241332
252	0x3ec57376	0.38564652
253	0xc18332fc	-16.399895
254	0xbdba8edb	-0.09109279
255	0xbed18c72	-0.40927464

model_1/block_1_project_BN/FusedBatchNormV3 f4 [8]
0	0xc12894a4	-10.536289
1	0xc189cf48	-17.226212
2	0x420f8f26	35.889793
3	0x41c3bdfc	24.467766
4	0x40a3c964	5.118334
5	0xbfa253ea	-1.2681859
6	0x42010f16	32.264732
7	0x40a04a5c	5.009077

model_1/block_2_depthwise_BN/FusedBatchNormV3;model_1/block_2_depthwise/depthwise;model_1/block_3_depthwise/depthwise f4 [1, 3, 3, 48]
0	0x3d07ac61	0.033123378
1	0xbd4c4746	-0.04987266
2	0x3e1b1d15	0.15147813
3	0x3fbb5ec3	1.4638294
4	0x3cbe9f00	0.023269176
5	0x3eaf12e0	0.34194088
6	0xbda4cafb	-0.08046528
7	0x3e04e3e8	0.12977564
8	0x3dade0c8	0.08490139
9	0x3d75e8e1	0.060036544
10	0x3cf26034	0.029586889
11	0x3d6df804	0.058097854
12	0xbda5e25d	-0.08099816
13	0xbd951cdf	-0.07280897
14	0xbe1b9748	-0.15194428
15	0x3d886d3b	0.06661459
16	0xbc0f5356	-0.008747896
17	0x3da2c78b	0.07948216
18	0xbd9336dd	-0.07188199
19	0xbf3cdf24	-0.73777986
20	0xbda4558f	-0.080241315
21	0xbe22fbed	-0.15916415
22	0x3f88f998	1.070117
23	0xbd4762cc	-0.048678204
24	0xbc42d54e	-0.011891676
25	0x3d2f4111	0.04278666
26	0xbdf44b08	-0.119283736
27	0x3d142944	0.036172166
28	0xbd29906a	-0.04139749
29	0x3df20e70	0.1181916
30	0x3d78fab8	0.06078598
31	0x3f67ce13	0.9054882
32	0x3fadadf5	1.3568712
33	0x3e49d28f	0.19709228
34	0x3ea839a5	0.3285648
35	0xbe3d0676	-0.18459496
36	0x3d1dbd6c	0.038510725
37	0x3e265335	0.16242678
38	0xbb5ffd98	-0.0034178253
39	0x3a9d5ee3	0.0012006428
40	0x3de1ae2b	0.11019548
41	0xbe37c177	-0.17944895
42	0xbd4cc902	-0.049996383
43	0xbd6c5ced	-0.05770581
44	0x3de3300e	0.1109315
45	0x3c4b4052	0.012405472
46	0xbd8a9c23	-0.06768062
47	0xbd7e07cd	-0.06201916
48	0x3fe363e7	1.7764863
49	0x3dffe59c	0.124949664
50	0x3de77f50	0.1130358
51	0xbfd95ac7	-1.6980828
52	0x3e2540b8	0.1613797
53	0x3ebe5684	0.3717538
54	0x3ee049e2	0.43806368
55	0x3d4323d4	0.04764159
56	0x3f2912b5	0.6604417
57	0x3f7eba9b	0.9950349
58	0x3cba79a0	0.022763073
59	0x3eb6797d	0.35639563
60	0xbf145769	-0.5794588
61	0xbe56faaf	-0.20994066
62	0x3c857e4a	0.01629557
63	0x3d70a6e4	0.05875291
64	0x3f8f7754	1.1208291
65	0xbf10eae1	-0.56608397
66	0xbe31ded1	-0.17370154
67	0xbebecbcd	-0.37264863
68	0xbf7d051b	-0.98835915
69	0x3e39c54a	0.18141666
70	0xbf6d5caa	-0.9271952
71	0x3dce5005	0.10073856
72	0x3deb7569	0.114970036
73	0x3ee237aa	0.44183093
74	0xbf37861f	-0.7168903
75	0xbeaf6518	-0.34256816
76	0x3e1e5aa0	0.15464258
77	0x3f2bd674	0.67124104
78	0x3d08ddd4	0.033414677
79	0xbf8f86ae	-1.1212976
80	0x3ecb17c6	0.39666575
81	0xbed656af	-0.4186301
82	0x3f8b5af6	1.0887134
83	0x3d88073e	0.06642006
84	0xbf137f40	-0.57616043
85	0xbe6e11af	-0.23248933
86	0xbd19279a	-0.037391283
87	0x3db18074	0.086670786
88	0xbef6aefd	-0.4818038
89	0xbe8a16ba	-0.26970464
90	0xbe55ecad	-0.20891066
91	0x3bb1dd86	0.005428019
92	0xbe6538b5	-0.22384913
93	0xbd13d821	-0.03609479
94	0xbf9f64c1	-1.2452623
95	0x3e1023e1	0.14076187
96	0xbee8bfc3	-0.45458803
97	0xbd4241be	-0.047425978
98	0x3d60dad1	0.05489618
99	0x3e4e138d	0.20124646
100	0xb9ea7732	-0.00044720765
101	0x3e8c07de	0.27349752
102	0x3e1eefbe	0.15521142
103	0x3da3f199	0.080050655
104	0x3e1b026c	0.15137643
105	0x3d74e839	0.059791777
106	0xbd474d32	-0.048657604
107	0x3e83e27e	0.25758737
108	0xbe2651bf	-0.16242121
109	0xbcedbd92	-0.029021058
110	0x3d57b2f9	0.052660916
111	0x3d021796	0.031760775
112	0xbf679e6a	-0.90476096
113	0x3e918630	0.2842269
114	0xbc0c6c0b	-0.008570681
115	0x3f012fda	0.5046364
116	0xbea07785	-0.31341186
117	0xbd9cd1a8	-0.07657176
118	0xbe285979	-0.16440381
119	0xbd17e59a	-0.0370842
120	0xbcfb7fce	-0.03070059
121	0xbebb037e	-0.36526102
122	0xbdaaf279	-0.08347029
123	0x3dfecd13	0.124414586
124	0xbdf5bd9c	-0.11999056
125	0x3e19be9b	0.15014116
126	0x3c888ce5	0.016668746
127	0xbe43baff	-0.19114302
128	0x3f03dc02	0.5150758
129	0xbe2126ec	-0.15737504
130	0x3e010768	0.12600482
131	0xbe004961	-0.12527992
132	0x3c1bc19f	0.009506612
133	0x3e712240	0.23548222
134	0x3eefc944	0.4683324
135	0xbc1b9eb4	-0.009498287
136	0x3e9ec566	0.31009978
137	0x3dce39a4	0.10069588
138	0xbde5eb85	-0.112265624
139	0x3d8965b0	0.067088485
140	0xbe8ec199	-0.27882078
141	0x3c3a785f	0.011381238
142	0xbcc2d1f7	-0.02378176
143	0xbd092080	-0.03347826
144	0x3fdfdf7f	1.749008
145	0x3daafe3c	0.083492726
146	0x3bf8f126	0.0075971065
147	0xbfa8dd57	-1.3192548
148	0x3da45309	0.0802365
149	0xbdfb1e0e	-0.12261592
150	0x3fb6a87d	1.4270169
151	0xbd9c3e49	-0.076290675
152	0x3d5c07e2	0.053718455
153	0x3d81da94	0.063405186
154	0xbd31e4f4	-0.043431237
155	0x3ee1ebb9	0.44125155
156	0xbdabd9e2	-0.08391167
157	0xbbafc1c5	-0.0053636753
158	0x3d81afc3	0.06332352
159	0xbe821ba9	-0.25411728
160	0x3b83f808	0.0040273704
161	0xbeff0e66	-0.49815673
162	0xbe30aed1	-0.17254187
163	0xbf0e0d9f	-0.55489534
164	0x3dbc83a9	0.092048
165	0xbf058ca1	-0.5216771
166	0xbf872cda	-1.0560563
167	0xbde1e2f9	-0.1102962
168	0x3d2d0f55	0.04225095
169	0x3f1ca1f8	0.61184645
170	0xbeb26460	-0.34842205
171	0xbf055c07	-0.5209355
172	0xbd8d7429	-0.069069214
173	0x3f8b5466	1.0885131
174	0x3d347350	0.044055283
175	0xbf77e91b	-0.96840066
176	0x3f9e252f	1.2355098
177	0xbeb6f128	-0.35730863
178	0xbd15052b	-0.03638188
179	0x3f57f969	0.84364945
180	0xbcfc60fe	-0.030807968
181	0x3e901be8	0.2814629
182	0xbeebb31f	-0.46035096
183	0x3cff2650	0.031146199
184	0xbec316bc	-0.38103282
185	0xbeb16c2c	-0.3465284
186	0x3e8c36b4	0.27385485
187	0xbf15d481	-0.5852738
188	0xbe955742	-0.29168135
189	0xbd8224a1	-0.06354643
190	0xbdff2dae	-0.124598846
191	0xbcf59dda	-0.029982496
192	0x3ec4bfd8	0.38427615
193	0xbfe64244	-1.7988973
194	0xbf6ac393	-0.9170467
195	0x3fc46f84	1.5346532
196	0xbf3ac704	-0.72959924
197	0xbf093a17	-0.53604263
198	0xc0ab3967	-5.350757
199	0xbf18080d	-0.59387285
200	0xbf2db425	-0.67853004
201	0xbf425ba2	-0.7592107
202	0x3ee13b9c	0.4399079
203	0xbf88dd8e	-1.0692613
204	0x3fba7533	1.4567016
205	0x3f8ff588	1.1246805
206	0x3df72f60	0.12069583
207	0xbf7f55c6	-0.99740255
208	0xbf3991eb	-0.7248828
209	0x3fa396e0	1.2780418
210	0x3ebe2531	0.3713775
211	0xbf3143bd	-0.69243985
212	0x3f9f06ba	1.2423928
213	0x3f683f4a	0.9072157
214	0x3f724a4e	0.9464463
215	0x3f4b81bd	0.7949484
216	0x3f6195f8	0.8811946
217	0xbf48a207	-0.78372234
218	0xc039fbdc	-2.9059973
219	0x3dfdbdf5	0.12389747
220	0xbf665435	-0.8997224
221	0xc08b4d6b	-4.3532004
222	0x3ec007f2	0.37506062
223	0x3f9475bd	1.1598431
224	0xc107e756	-8.4939785
225	0x3f612999	0.879541
226	0xbe86a4ea	-0.26297694
227	0xbe915b61	-0.2839003
228	0x3ff7dc1f	1.9364051
229	0xbf1fba74	-0.6239388
230	0x3fb45d2d	1.4090935
231	0x3dc451df	0.09585928
232	0x3f48642e	0.7827786
233	0xbe5f21be	-0.21790215
234	0x3f59c6d5	0.8506902
235	0x3f583d46	0.84468496
236	0x3f550f8c	0.8322685
237	0xbf0896fa	-0.5335537
238	0x3f7d963d	0.9905737
239	0x3f22ca5c	0.63590026
240	0x3f437f12	0.7636577
241	0x3d8b7cfd	0.06810949
242	0x3eb2f5d0	0.34953165
243	0xbe397a1d	-0.18112989
244	0x3cff0a0c	0.03113272
245	0xbe86139d	-0.2618684
246	0x3feba25c	1.8408923
247	0x3daf9987	0.08574205
248	0xbe02b95f	-0.12766026
249	0x3ddbeb08	0.10738188
250	0xbeb9ca14	-0.36286986
251	0xbd917590	-0.071025014
252	0x3bd70d33	0.0065628528
253	0xbeb905ce	-0.3613724
254	0x3ee0e52f	0.43924853
255	0x3d168ba7	0.036754277

model_1/block_2_project_BN/FusedBatchNormV3 f4 [8]
0	0xc19c5fd6	-19.546795
1	0x417faa34	15.9790535
2	0xc1bbc565	-23.471384
3	0xc1c288fc	-24.316887
4	0x417103fd	15.063474
5	0x3ea81fcb	0.32836756
6	0x41a5431d	20.65777
7	0x423f818f	47.876522

model_1/block_3_depthwise_BN/FusedBatchNormV3;model_1/block_3_depthwise/depthwise f4 [1, 3, 3, 48]
0	0x3e60ace9	0.2194096
1	0xbe0da249	-0.13831438
2	0x3f3ae3ad	0.73003656
3	0x3e0be6f6	0.13662323
4	0x3e83bc3b	0.25729546
5	0xbdcc42fe	-0.09973715
6	0x3f183d86	0.5946888
7	0xbebb9044	-0.36633503
8	0x3e25c574	0.16188604
9	0xbe1d89af	-0.15384553
10	0xbe1beb1d	-0.15226407
11	0x3e359346	0.17731962
12	0x3dc152d3	0.094396256
13	0xbd78247f	-0.06058168
14	0xbf03157e	-0.5120467
15	0xbf3394b5	-0.70148784
16	0x3f1f4b79	0.6222454
17	0x3e6bf6da	0.23043385
18	0x3e693eee	0.22777912
19	0x3edd71e6	0.4325096
20	0x3e696f80	0.2279644
21	0xbf4fd79a	-0.81188357
22	0xbe9d72d1	-0.3075166
23	0x3e86db41	0.26339152
24	0xbe16585a	-0.14682141
25	0xbe233223	-0.15937094
26	0xbda22fbe	-0.07919262
27	0xbe4c138b	-0.1992933
28	0xbe8a503e	-0.27014345
29	0x3eaaebe4	0.33383095
30	0xbe7432fe	-0.23847577
31	0xbf4ef0ab	-0.8083598
32	0xbca1f92b	-0.019772133
33	0x3e6e2dd7	0.23259674
34	0x3db14b0f	0.086568944
35	0x3e1c668d	0.15273495
36	0xbe95700a	-0.29187042
37	0x3e539061	0.20660545
38	0xbe8f6bec	-0.28012025
39	0xbdce70ce	-0.100801095
40	0x3e4b05a5	0.19826372
41	0xbea4b654	-0.32170355
42	0x3e719593	0.23592214
43	0x3e8dd574	0.27701914
44	0xbdc16448	-0.09442955
45	0x3d44ee5d	0.048078883
46	0x3eab3e7c	0.3344611
47	0xbd0474b8	-0.032337874
48	0x3e8799d9	0.26484564
49	0xbe13e4c5	-0.14442737
50	0x3f710ba5	0.94158393
51	0x3e29874b	0.16555516
52	0xbebf5bf8	-0.37374854
53	0xbe493cfe	-0.19652173
54	0xbe9c5f2b	-0.30541357
55	0xbef4f09b	-0.47839817
56	0x3e8640f9	0.26221445
57	0xbe371f7d	-0.17883106
58	0xbdf70470	-0.12061393
59	0x3e8fe319	0.2810295
60	0x3e102bcc	0.14079207
61	0xbe1fd2ac	-0.15607709
62	0xbf302d33	-0.6881897
63	0x3f3623e5	0.7114852
64	0xbe65e3cc	-0.22450179
65	0x3e92b478	0.28653312
66	0x3ec90a34	0.39265597
67	0x3f310c3a	0.6915928
68	0x3e9400c2	0.28906828
69	0xbfa491a1	-1.2856942
70	0x3e41b9f2	0.18918589
71	0x3ebc4204	0.36769116
72	0xbe7b0eff	-0.2451744
73	0xbe95b42a	-0.29239017
74	0xbdab4873	-0.08363428
75	0xbe804166	-0.25049895
76	0x3e68e7af	0.2274463
77	0x3ed9daa0	0.4254961
78	0xbdef5e3c	-0.11687896
79	0xbf64e9a9	-0.8941904
80	0xbe3822e0	-0.17982054
81	0x3ee650b4	0.44983447
82	0x3dd1b9a0	0.10240483
83	0x3e50926d	0.20368357
84	0xbec021fb	-0.37525925
85	0x3ea80617	0.32817146
86	0xbee9bbe8	-0.45651174
87	0xbd91202a	-0.07086213
88	0x3e9f6334	0.31130373
89	0xbed17aa1	-0.4091387
90	0x3ea5b243	0.32362565
91	0x3ecdc34b	0.4018806
92	0xbd9b13a0	-0.075721025
93	0xbf34bfe0	-0.7060528
94	0x3ecd9a39	0.40156725
95	0xbdd09d37	-0.10186236
96	0x3def4be9	0.116844006
97	0xbd8a2372	-0.06745042
98	0x3f0aec68	0.5426698
99	0x3d9915a9	0.074748345
100	0x3db579e9	0.08861143
101	0xbdf6e942	-0.12056209
102	0xbe870462	-0.2637053
103	0xbe64cdb2	-0.22344092
104	0x3dedd40f	0.116127126
105	0xbd5adcfd	-0.053433407
106	0x3be75b70	0.0070604607
107	0x3dfa6b50	0.122274995
108	0x3d443c1c	0.047908887
109	0xbde2dcaa	-0.110772446
110	0xbecada44	-0.39619648
111	0xbc251e89	-0.010078081
112	0xbea713ea	-0.3263238
113	0x3de6363a	0.11240812
114	0x3e23c0ea	0.1599156
115	0x3ec8bb9b	0.39205632
116	0x3de4eeda	0.1117837
117	0xbf1d89e3	-0.61538523
118	0x3df43c8d	0.11925612
119	0x3e06bd7b	0.13158219
120	0xbdfb20f8	-0.12262148
121	0xbe35a789	-0.17739691
122	0xbd5d4b71	-0.054027025
123	0xbd9c3676	-0.07627575
124	0x3df937e7	0.12168866
125	0x3e299234	0.16559678
126	0x3ea85556	0.32877606
127	0xbf1de828	-0.6168237
128	0xbe369299	-0.1782936
129	0x3e8340c7	0.2563536
130	0x3d3f1c40	0.0466578
131	0x3da52ad5	0.0806481
132	0xbe077388	-0.13227665
133	0x3e20d33a	0.15705577
134	0xbe4b4e35	-0.19854052
135	0xbd02401d	-0.031799424
136	0x3e2b35b3	0.16719703
137	0xbe3b3a6d	-0.18284006
138	0x3e0bff28	0.13671553
139	0x3e461bbe	0.1934652
140	0xbbd964fe	-0.0066343537
141	0xbd304418	-0.04303369
142	0x3e21ef84	0.15814024
143	0xbd91b17f	-0.07113933
144	0x3e984cdd	0.29746142
145	0xbe2f25bd	-0.1710424
146	0xbea19f65	-0.3156692
147	0x3e37ce8f	0.1794989
148	0x3e899e07	0.26878378
149	0xbe753290	-0.2394507
150	0x3f2ef3b9	0.6834064
151	0xbefdc1f3	-0.49562034
152	0x3e79254b	0.24330632
153	0xbe4383d1	-0.19093253
154	0xbe145092	-0.1448386
155	0x3e9c1467	0.30484316
156	0x3e19e670	0.15029311
157	0xbe21823c	-0.15772337
158	0xbdda4144	-0.1065698
159	0xbf7ebf12	-0.995103
160	0x3f492fca	0.78588545
161	0x3eaabc25	0.33346668
162	0x3eb70c15	0.35751405
163	0xbe4e0061	-0.20117332
164	0x3e938836	0.28814858
165	0x3f9dc352	1.2325232
166	0xbef4bb7a	-0.47799283
167	0x3ec21f32	0.37914425
168	0x3eb0fb65	0.345668
169	0xbe96761c	-0.29386985
170	0xbde58117	-0.112062626
171	0xbe9b7ed7	-0.3037021
172	0xbf057ef8	-0.52146864
173	0x3eea0161	0.45704177
174	0xbe8403d6	-0.25784177
175	0xbd913827	-0.07090788
176	0xbe3b4f92	-0.18292072
177	0x3ed0043b	0.40628228
178	0x3e05aedf	0.1305499
179	0x3e701fbf	0.2344961
180	0xbec596c9	-0.38591602
181	0x3e9530bc	0.29138744
182	0xbedb35f0	-0.4281459
183	0x3ebf2e14	0.37339842
184	0x3eaf8d89	0.3428767
185	0xbedef960	-0.43549633
186	0x3eab5ac0	0.33467674
187	0x3ed118ca	0.40839225
188	0xbdafa6ea	-0.08576758
189	0x3f14da7a	0.5814587
190	0x3ece5c31	0.4030471
191	0xbdb49317	-0.08817118
192	0x3ecf89fa	0.40534955
193	0xbe430388	-0.19044316
194	0xbeff9956	-0.49921674
195	0x3e7b64b8	0.2455014
196	0xbf1f547d	-0.62238294
197	0xbebab6e6	-0.36467665
198	0xbf026a13	-0.50943106
199	0xbf35be1c	-0.7099321
200	0x3eb2f96e	0.34955925
201	0xbe599b41	-0.21250631
202	0xbe7e4b1d	-0.24833341
203	0x3eeda793	0.4641691
204	0x3e651bca	0.22373882
205	0xbe3ad5db	-0.18245642
206	0xbe2bca48	-0.16776383
207	0x3f403119	0.7507492
208	0xbecec23f	-0.40382573
209	0x3ec3c890	0.38238955
210	0x3f1aa25e	0.60404
211	0xbe8f6815	-0.28009096
212	0x3edf3872	0.43597752
213	0x3fb746b1	1.4318448
214	0x3e80bf5c	0.25145996
215	0x3f273ac1	0.65324026
216	0x3f1a7950	0.6034136
217	0xbefcf3d3	-0.49404773
218	0xbe1e70d5	-0.1547273
219	0xbec76860	-0.3894682
220	0x3e5fec45	0.21867473
221	0x3f2ba042	0.6704141
222	0xbde7726b	-0.1130112
223	0x3ddafb16	0.10692422
224	0xbe896840	-0.2683735
225	0x3f39aa94	0.72525907
226	0x3e1c9d30	0.15294337
227	0x3e9fb273	0.31190833
228	0xbf12f6f0	-0.57408047
229	0x3ef05e66	0.4694702
230	0xbf2d7f5d	-0.67772466
231	0x3f0ae457	0.5425467
232	0x3f052946	0.52016103
233	0xbf0d8462	-0.55280125
234	0x3ef6941d	0.48159876
235	0x3f14fdc9	0.58199745
236	0xbe0089f6	-0.12552628
237	0xbd868f5d	-0.06570313
238	0x3f08018c	0.5312736
239	0xbdfb5c47	-0.1227346
240	0x3e5566d2	0.20840004
241	0xbdf21b16	-0.118215725
242	0xbe770f0b	-0.24126832
243	0x3dfd2b43	0.12361767
244	0x3e410ec9	0.18853296
245	0xbe380f23	-0.17974524
246	0xbe88a6f6	-0.2668988
247	0xbeb64db2	-0.35606152
248	0x3e1eb774	0.1549967
249	0xbd99f6ec	-0.075178
250	0xbdf4db7d	-0.119559266
251	0x3e502a99	0.2032875
252	0x3da95892	0.082688466
253	0xbda19b3f	-0.07890939
254	0xbe0160f3	-0.1263464
255	0x3d9c4637	0.0763058

model_1/block_3_project_BN/FusedBatchNormV3 f4 [16]
0	0xc1ed1cfc	-29.639153
1	0x408c886a	4.391652
2	0x3fc6943a	1.5513985
3	0xc104109a	-8.254053
4	0xbfcac7d9	-1.5842239
5	0xc0e0ec29	-7.028828
6	0xc11e2440	-9.88385
7	0xc1b64dc1	-22.787966
8	0x3ea0bdff	0.31394956
9	0x41872c53	16.896643
10	0x41daea5a	27.36443
11	0xc086f47e	-4.217345
12	0xc046c05c	-3.1054907
13	0xc1c3546e	-24.416225
14	0x41aeb5a5	21.838694
15	0xc1bc667a	-23.550037
